25_task_07_02_22/autoencoder/classwork/best-model.pt (torch, 178037 bytes, 77 tensors)

encoder.0.encoder.0.weight f4 [4, 1, 3, 3]
-0.0043107504 -0.176197 0.020716568 0.1261007 0.07255375 -0.23175773 -0.00046193245 0.0011022248
0.3038039 0.30442548 0.24436603 0.24955519 0.008599189 -0.2319857 0.035999794 0.03432342
0.2902689 0.1054915 0.0052836468 -0.07052614 0.06594598 0.28997365 -0.24466035 -0.3307774
0.1357294 -0.12244415 -0.0284679 -0.02205139 -0.02796573 -0.3109812 -0.1621224 0.26719335
0.06490699 0.19081505 0.032210466 -0.21766074
00000000: 3241 8dbb fd6c 34be cbb5 a93c 8b20 013e
00000010: 0f97 943d e651 6dbe 862f f2b9 8778 903a
00000020: 2f8c 9b3e a8dd 9b3e 173b 7a3e 658b 7f3e
00000030: 9de3 0c3c a98d 6dbe 8574 133d b796 0c3d
00000040: 209e 943e ed0b d83d 7122 ad3b 0270 90bd
00000050: b00e 873d 6d77 943e 3e88 7abe a85b a9be
00000060: a6fc 0a3e 00c4 fabd 8335 e9bc 1ea5 b4bc
00000070: 6318 e5bc ee38 9fbe 6a03 26be 91cd 883e
00000080: f5ed 843d 0565 433e 1fef 033d 75e2 5ebe

encoder.0.encoder.0.bias f4 [4]
-0.10782058 -0.22804521 0.08532393 -0.18094175
00000000: 09d1 dcbd af84 69be 50be ae3d cb48 39be

encoder.0.encoder.2.weight f4 [4]
0.99972016 1.0002112 0.99980164 0.9997587
00000000: a9ed 7f3f ec06 803f 00f3 7f3f 30f0 7f3f

encoder.0.encoder.2.bias f4 [4]
-3.3171284e-05 -0.00026749185 0.0002336023 -0.00024508178
00000000: 6521 0bb8 263e 8cb9 24f3 7439 527e 80b9

encoder.0.encoder.3.weight f4 [4, 4, 3, 3]
0.1292237 -0.052785926 0.11136484 0.0020942476 0.108898886 0.109907016 -0.10182965 0.14001456
0.12773935 0.0843143 0.062217243 0.14388229 -0.018254781 0.13930924 0.11282783 -0.077286094
0.045405265 0.0103969 -0.15903477 0.110085435 -0.01424389 0.09845403 0.026886813 -0.060237244
-0.08732884 0.046304487 -0.07034711 0.1403473 0.0047678007 -0.07677596 -0.021747334 -0.100684084
0.10039543 -0.12646347 0.1361211 0.021741208 0.062259305 0.11987036 -0.06969053 -0.13126884
-0.118759006 0.16437769 0.09241298 -0.0682147 0.030165669 -0.057982612 0.1660524 0.10926601
0.12379571 0.015496013 0.16075364 -0.06620149 0.12680408 -0.046346135 0.15425012 -0.060089044
-0.13373846 -0.05033144 0.06951354 -0.11316845 -0.07444107 0.14586805 -0.07517142 0.12540783
-0.022071673 -0.00011595718 -0.1638332 0.119183 -0.14063843 -0.061184097 0.11639467 0.11768064
-0.078605175 0.059792377 0.1249863 0.032615047 -0.13830228 0.12221558 -0.12623435 0.08712771
-0.09997946 0.0077001154 -0.14936796 0.07428382 0.028899213 0.06958565 0.1551657 0.16153552
0.00037543575 -0.1097812 -0.071896225 0.13039896 0.03902951 0.06936848 -0.12792596 -0.108266145
-0.063651636 0.06618038 -0.02632314 0.14253688 -0.042258058 0.034202497 -0.073866755 -0.009937226
0.11480715 -0.023873247 0.0015019667 0.07428518 0.09678467 0.0034921595 -0.14941335 0.11109858
0.045850154 -0.026919179 -0.004057381 -0.16149957 -0.14114906 0.12932485 0.044073924 0.08870117
0.11553234 -0.013555 0.09612812 -0.119546436 0.031435248 -0.14408043 -0.14324014 -0.14557377
0.020897519 -0.1272557 -0.14041293 -0.14937809 0.005947145 0.071839 0.07434632 0.13830975
0.15211229 -0.08615722 0.115061164 0.048459563 0.15909971 0.07992703 0.069854066 -0.010369107
00000000: 3853 043e 0e36 58bd 4013 e43d a53f 093b
00000010: 6106 df3d ee16 e13d 108c d0bd fa5f 0f3e
00000020: 1bce 023e faac ac3d 82d7 7e3d e155 133e
00000030: 0d8b 95bc 15a7 0e3e 4712 e73d 2c48 9ebd
00000040: dffa 393d c257 2a3c 03da 22be 7974 e13d
00000050: 345f 69bc 44a2 c93d bc41 dc3c 54bb 76bd
00000060: 76d9 b2bd c6a9 3d3d 2512 90bd 34b7 0f3e
00000070: 363b 9c3b b73c 9dbd 7727 b2bc 7533 cebd
00000080: 1f9c cd3d a47f 01be 5463 0b3e 9e1a b23c
00000090: 9d03 7f3d 977e f53d e9b9 8ebd 576b 06be
000000a0: ec37 f3bd a052 283e 0443 bd3d 26b4 8bbd
000000b0: fe1d f73c 2d7f 6dbd a409 2a3e dcc6 df3d
000000c0: 9b88 fd3d fde2 7d3c 9a9c 243e a694 87bd
000000d0: eed8 013e 72d5 3dbd bef3 1d3e ee1f 76bd
000000e0: bcf2 08be 5728 4ebd 1d5d 8e3d dcc4 e7bd
000000f0: 8f74 98bd 6f5e 153e 79f3 99bd e96a 003e
00000100: a7cf b4bc 092e f3b8 e4c3 27be 3716 f43d
00000110: 8503 10be 2d9c 7abd 5460 ee3d 8c02 f13d
00000120: c0fb a0bd dae8 743d d1f8 ff3d 5b97 053d
00000130: 1d9f 0dbe 294c fa3d 9443 01be 0370 b23d
00000140: 08c2 ccbd 4051 fc3b eaf3 18be 1e22 983d
00000150: 0bbe ec3c ec82 8e3d c2e3 1e3e 9169 253e
00000160: 22d6 c439 f7d4 e0bd 543e 93bd 4e87 053e
00000170: 68dd 1f3d 1011 8e3d 06ff 02be a4ba ddbd
00000180: ca5b 82bd 9489 873d a0a3 d7bc 30f5 113e
00000190: c916 2dbd eb17 0c3d 7447 97bd bfcf 22bc
000001a0: 0320 eb3d d491 c3bc a4dd c43a d422 983d
000001b0: 0b37 c63d b7dc 643b d0ff 18be a787 e33d
000001c0: 5fcd 3b3d 9c85 dcbc c7f3 84bb 2560 25be
000001d0: 6189 10be bc6d 043e dc86 343d f6a8 b53d
000001e0: 389c ec3d ca15 5ebc d2de c43d c3d4 f4bd
000001f0: 3fc2 003d d289 13be 8bad 12be 4a11 15be
00000200: 4631 ab3c 514f 02be 68c8 0fbe 92f6 18be
00000210: 45e0 c23b 5320 933d e242 983d 12a1 0d3e
00000220: 53c3 1b3e 3273 b0bd 30a5 eb3d 897d 463d
00000230: 09eb 223e c8b0 a33d a60f 8f3d 30e3 29bc

encoder.0.encoder.3.bias f4 [4]
0.123275936 -0.06648163 -0.11965979 -0.09490346
00000000: 1878 fc3d 8527 88bd 3110 f5bd bf5c c2bd

encoder.0.encoder.5.weight f4 [4]
0.9998883 0.99970984 1.0002117 1.0001185
00000000: aef8 7f3f fcec 7f3f f006 803f e203 803f

encoder.0.encoder.5.bias f4 [4]
-0.0001471577 -0.00018286431 6.068316e-05 -0.00015572141
00000000: 584e 1ab9 44bf 3fb9 0c86 7e38 2649 23b9

encoder.1.encoder.0.weight f4 [8, 4, 3, 3]
-0.026909528 -0.16506557 0.02410728 0.07807684 0.15091765 -0.075448886 0.023247635 -0.12928122
0.013378302 -0.12764594 -0.13645934 -0.13190944 0.0119729545 -0.08105284 0.0987929 -0.085208036
-0.03851617 -0.029230284 -0.07162338 -0.12571809 0.14836043 0.11820488 0.04410447 0.059864778
-0.021332117 -0.07108778 -0.0024372835 0.108491406 -0.07888858 -0.07286841 -0.084068246 0.0037112313
-0.14410415 -0.012661017 -0.0065774405 -0.16394013 -0.056624956 0.0066174567 0.008513817 -0.16105045
-0.034234446 -0.05137017 0.13138328 0.097227 0.052828263 -0.15364607 -0.14728637 0.024948722
-0.06401842 0.00067670137 0.03943585 -0.019548168 -0.07285028 0.061151985 -0.018872973 0.040783938
-0.04279519 -0.061815042 0.12559225 -0.11064476 -0.16528223 -0.002071614 0.111060314 0.0020647144
0.10125811 -0.16193956 -0.022484947 0.11152173 -0.112540185 0.1333989 -0.15012622 0.052965887
0.09162227 -0.117581114 -0.025440646 0.0039246418 0.056109894 0.026477173 -0.07306317 -0.11172711
0.004772478 0.008198793 -0.01745588 -0.13540639 0.07834765 0.053559236 -0.06060461 0.059525065
-0.112819836 -0.047634654 0.15359785 -0.14009103 0.030922012 0.12839893 0.09730334 -0.0033125146
0.0108301025 -0.16550532 -0.08594758 -0.007306848 0.054554675 0.1550168 0.00096385996 -0.15415227
-0.092910446 0.016775472 8.9425346e-05 -0.09588092 0.12420839 0.013011729 0.09383527 0.001061857
-0.053230267 -0.1522991 0.12872939 0.09609513 0.019480433 0.07054263 -0.13555554 0.062152077
-0.14032336 -0.052360095 0.16308449 0.13305743 -0.04985445 0.108600944 -0.103631176 0.01691512
-0.1508646 -0.104031384 -0.02655138 0.08310754 -0.13906112 -0.16535854 -0.002179126 0.10757847
0.16169176 -0.109430216 -0.039972726 -0.15735483 -0.084843576 0.13586074 0.0012366666 0.06328359
-0.02565418 0.0954166 -0.14693235 -0.035523206 0.103582256 0.008475382 -0.0065802615 -0.05653646
-0.12679724 0.15489943 0.026323581 0.1565776 -0.03826225 -0.15944256 -0.0116391815 -0.0119894035
0.1650928 0.041195 0.019082757 -0.12479419 -0.07950856 0.11739045 -0.10967621 0.16598353
0.065059744 -0.07430959 0.085060045 0.004376799 0.15416728 0.1160094 -0.10871003 0.15419528
0.043019775 0.1544143 0.017676868 0.12572889 0.15595992 0.044401877 -0.118320405 0.061101574
0.0040937234 0.021655902 0.024845488 0.06256238 0.14021558 0.1031374 -0.004492181 0.08492957
-0.14572753 0.0011183401 0.077752076 -0.093243584 0.03293952 0.148315 -0.11297707 0.06638622
-0.0031862399 -0.059025247 -0.16005151 0.04895772 -0.1421646 0.02715476 -0.010294079 0.0718483
0.11502937 -0.043060493 0.020792615 -0.09130633 0.07370351 0.004087772 -0.09282919 0.124628834
0.018821508 0.050392542 0.05223623 -0.058138438 -0.13560666 -0.13956167 0.015816895 -0.11035576
-0.06390701 0.06669549 0.032522283 0.15480216 -0.14168659 -0.15970464 0.018232618 -0.08634238
-0.15824623 0.0663402 -0.09434942 -0.013578034 -0.034569282 -0.14953153 -0.07407223 -0.05405913
0.11743311 -0.09125184 -0.07320475 0.014605624 -0.13292408 -0.016747976 -0.14083521 0.15210061
-0.045294452 0.08260644 0.05197521 0.15979734 -0.11584281 -0.055395268 0.05439846 0.07924759
00000000: 5f71 dcbc f306 29be a17c c53c c0e6 9f3d
00000010: 288a 1a3e f284 9abd d371 be3c 4c62 04be
00000020: aa30 5b3c 9eb5 02be ffbb 0bbe 4513 07be
00000030: 362a 443c 08ff a5bd ef53 ca3d 8d81 aebd
00000040: 22c3 1dbd 5974 efbc 47af 92bd 3ebc 00be
00000050: cceb 173e 6615 f23d e4a6 343d c534 753d
00000060: b1c0 aebc 7896 91bd d5ba 1fbb be30 de3d
00000070: 5690 a1bd 083c 95bd f92b acbd 2138 733b
00000080: 0a90 13be 2770 4fbc 9287 d7bb ecdf 27be
00000090: 92ef 67bd 40d7 d83b 897d 0b3c 69ea 24be
000000a0: 6b39 0cbd 8769 52bd 5789 063e f31e c73d
000000b0: 7362 583d 6555 1dbe 3dd2 16be 4361 cc3c
000000c0: 171c 83bd a964 313a 7c87 213d 7b23 a0bc
000000d0: 8732 95bd 817a 7a3d 7e9b 9abc 0f0d 273d
000000e0: 024a 2fbd c531 7dbd 419b 003e b899 e2bd
000000f0: bf3f 29be eac3 07bb 9773 e33d 2950 073b
00000100: 6960 cf3d 7cd3 25be 5a32 b8bc 8165 e43d
00000110: 787b e6bd b999 083e b0ba 19be c2f2 583d
00000120: 75a4 bb3d 5ece f0bd e768 d0bc 489a 803b
00000130: 7dd3 653d a8e6 d83c 25a2 95bd 2fd1 e4bd
00000140: 7262 9c3b 3b54 063c a2ff 8ebc f9a7 0abe
00000150: bc74 a03d ee60 5b3d 8a3c 78bd 8ed0 733d
00000160: 160e e7bd 8e1c 43bd c148 1d3e 0674 0fbe
00000170: 2950 fd3c 027b 033e f946 c73d c616 59bb
00000180: be70 313c 3a7a 29be 4905 b0bd 496e efbb
00000190: b974 5f3d b9bc 1e3e 8cab 7c3a 18da 1dbe
000001a0: d547 bebd b76c 893c de89 bb38 375d c4bd
000001b0: f860 fe3d 262f 553c b52c c03d 022e 8b3a
000001c0: fb07 5abd 4cf4 1bbe a3d1 033e 86cd c43d
000001d0: 6e95 9f3c a878 903d 12cf 0abe 2d93 7e3d
000001e0: edb0 0fbe 8a77 56bd 9fff 263e 3540 083e
000001f0: 2e34 4cbd 2c6a de3d 953c d4bd 9491 8a3c
00000200: 407c 1abe 680e d5bd 4882 d9bc 4934 aa3d
00000210: 0a66 0ebe c053 29be abcf 0ebb 1a52 dc3d
00000220: 8692 253e f31c e0bd 71ba 23bd a021 21be
00000230: 78c2 adbd 141f 0b3e a517 a23a d49a 813d
00000240: b728 d2bc c769 c33d 6f75 16be c880 11bd
00000250: ef22 d43d 54dc 0a3c 3c9f d7bb c692 67bd
00000260: 23d7 01be f59d 1e3e 8da4 d73c e155 203e
00000270: e1b8 1cbd e944 23be 44b2 3ebc 346f 44bc
00000280: 160e 293e 17bc 283d 7153 9c3c 1994 ffbd
00000290: 62d5 a2bd 676a f03d ec9d e0bd 96f7 293e
000002a0: 0b3e 853d a02f 98bd f633 ae3d 406b 8f3b
000002b0: 07de 1d3e 5696 ed3d 5da3 debd 5ee5 1d3e
000002c0: 8135 303d c81e 1e3e 14cf 903c 13bf 003e
000002d0: f5b3 1f3e bede 353d f851 f2bd a545 7a3d
000002e0: a424 863b b867 b13c c488 cb3c b520 803d
000002f0: ac94 0f3e b339 d33d 2533 93bb 8eef ad3d
00000300: 9939 15be 4495 923a 7b3c 9f3d 7ef6 bebd
00000310: 97eb 063d e3df 173e 8660 e7bd 80f5 873d
00000320: 3cd0 50bb 75c4 71bd 8be4 23be e487 483d
00000330: 9993 11be a973 de3c 7fa8 28bc 3425 933d
00000340: 8594 eb3d 3360 30bd 4655 aa3c d0fe babd
00000350: def1 963d b8f2 853b 3b1d bebd 673d ff3d
00000360: 902f 9a3c 6968 4e3d a8f5 553d 9222 6ebd
00000370: 79dc 0abe 41e9 0ebe 6f92 813c 3302 e2bd
00000380: aee1 82bd a597 883d 1636 053d 7584 1e3e
00000390: 4a16 11be 9d89 23be 925c 953c 46d4 b0bd
000003a0: 4d0b 22be 5fdd 873d 453a c1bd 6776 5ebc
000003b0: 8598 0dbd cb1e 19be 2eb3 97bd 1b6d 5dbd
000003c0: c580 f03d 3fe2 babd 5fec 95bd 6d4c 6f3c
000003d0: 401d 08be 0d33 89bc 1b37 10be 43c0 1b3e
000003e0: ad86 39bd 912d a93d f5e3 543d eaa1 233e
000003f0: ff3e edbd 26e6 62bd ebd0 5e3d 8f4c a23d

encoder.1.encoder.0.bias f4 [8]
0.119535655 0.108413324 -0.11324176 0.08335881 0.048120834 -0.037003554 0.031494804 0.14324239
00000000: 1ccf f43d ce07 de3d 4ceb e7bd 06b8 aa3d
00000010: 5a1a 453d 0a91 17bd b200 013d 22ae 123e

encoder.1.encoder.2.weight f4 [8]
1.0002472 0.99983805 1.0001624 1.0001605 1.0000583 0.9998527 0.9999595 0.9997474
00000000: 1a08 803f 63f5 7f3f 5205 803f 4205 803f
00000010: e901 803f 59f6 7f3f 59fd 7f3f 72ef 7f3f

encoder.1.encoder.2.bias f4 [8]
3.8080027e-05 -0.00010632522 -2.6885069e-05 -0.00018822109 0.00012684177 -0.00014292232 0.00015979934 0.00024445044
00000000: 1eb8 1f38 ebfa deb8 3f87 e1b7 375d 45b9
00000010: d400 0539 6bdd 15b9 cf8f 2739 9529 8039

encoder.1.encoder.3.weight f4 [8, 8, 3, 3]
0.014653226 0.09705709 0.034495015 -0.09332765 0.074760884 0.05491838 -0.022208149 -0.09888009
0.045615375 -0.11702988 -0.0775579 -0.04373625 0.0974446 -0.021633418 -0.10284166 -0.058982033
-0.09881752 0.040135976 0.012608085 0.0863695 -0.022814363 0.1112496 0.04140126 0.033163447
-0.113549605 -0.06595992 -0.051019046 -0.082741454 0.033122133 -0.050426733 -0.034347475 -0.08498772
0.026150042 -0.05011467 -0.038790762 -0.05208897 -0.08173547 0.08212435 -0.05963074 -0.022730693
-0.008290874 7.5936245e-05 0.032084055 -0.06944307 0.0046081715 -0.083202146 -0.068351634 -0.057886217
-0.0691153 -0.080173574 0.03504396 -0.027440768 0.04215689 -0.0816117 0.081275076 -0.09962426
0.008305947 0.06645248 0.075702466 -0.014843489 0.08430807 0.07612931 0.020682152 0.10494445
0.017511303 0.046154164 -0.086271964 0.08326025 0.0373835 0.015138542 0.096605584 0.08035675
-0.015555385 -0.034572966 -0.00067042117 0.003456725 0.0030553981 0.073352024 0.026463969 0.03477604
-0.052073877 0.042660378 -0.0040818504 0.02954006 -0.027930928 -0.07594909 -0.033024713 0.057693172
-0.04960591 -0.039651986 0.11740213 0.04197148 0.04942423 -0.09870903 -0.03581661 0.01865319
0.05417818 0.030654753 0.113074645 -0.048899446 0.11745775 0.06113461 -0.013476355 -0.08042111
0.035648156 -0.05302981 -0.08428909 -0.003955725 0.06168118 -0.006647503 0.026659582 0.033585105
0.024646005 0.006248959 -0.110887975 -0.08047677 -0.09694759 -0.062495843 0.07205347 -0.060112312
0.03305201 0.062996395 -0.0017290239 -0.11131362 0.07949823 0.05973932 0.09989966 -0.07409621
-0.02518618 -0.04075141 0.10538129 -0.04712756 -0.0981161 -0.008443216 0.059662215 0.08324178
-0.00707955 0.034424063 0.013539636 0.028432146 0.013206726 0.02409052 0.08036108 0.09803483
0.057858948 0.08190146 0.092781216 0.093982235 -0.097640865 -0.08860362 0.11382171 -0.11044363
-0.08519346 -0.07562914 -0.092545696 -0.08921519 -0.10575743 0.0026312454 0.08276012 0.096559085
-0.0023650175 0.007565946 -0.07822885 -0.038261764 -0.06891324 0.05861991 -0.078694634 0.11189962
-0.021263687 -0.06922481 0.11476163 -0.062420666 -0.023870414 -0.11520055 0.005013015 0.060160704
-0.078357354 0.10852213 -0.04469924 0.01693654 -0.103833035 -0.035600964 -0.031620234 -0.106923856
-0.055171274 -0.039717175 -0.0235745 0.09694285 -0.020245489 0.098293684 -0.03277857 -0.073860526
-0.04619393 -0.09482372 0.05675682 -0.0052679908 0.051155902 -0.029603152 -0.072236985 0.077638306
-0.037120692 -0.020247616 -0.00070548145 -0.073759995 -0.08987573 -0.08704936 0.027028695 0.07950443
-0.02782737 -0.09771549 0.037999436 0.09725064 -0.044018965 -0.05740424 -0.10389393 0.08269423
-0.08979882 0.04870628 0.098571874 0.0535384 0.000989389 -0.11503453 -0.023343889 -0.080634
0.110180266 0.046507914 0.01221579 0.07206847 0.026551628 -0.018741298 -0.10857888 0.06516813
-0.114696905 0.10881339 0.004703502 -0.07042737 0.08144882 0.003944782 0.09415996 0.02685178
0.0056708846 -0.07679105 0.090531446 0.04912086 -0.072728865 0.04301516 -0.057229914 0.034232352
-0.018237993 0.041659098 0.05605576 0.037579563 -0.07045437 -0.1047558 -0.10573326 0.045810524
00000000: 1614 703c dec5 c63d a54a 0d3d 9122 bfbd
00000010: 3c1c 993d 18f2 603d dded b5bc a581 cabd
00000020: 30d7 3a3d 5dad efbd add6 9ebd c824 33bd
00000030: 0991 c73d 9138 b1bc a69e d2bd 2597 71bd
00000040: d760 cabd 9f65 243d 2492 4e3c 7ee2 b03d
00000050: 30e5 babc d5d6 e33d 5e94 293d 65d6 073d
00000060: b28c e8bd ff15 87bd 59f9 50bd 5a74 a9bd
00000070: 13ab 073d 438c 4ebd f0af 0cbd 0b0e aebd
00000080: 9d38 d63c 0a45 4dbd 10e3 1ebd 3e5b 55bd
00000090: ed64 a7bd d030 a83d 5d3f 74bd b835 babc
000000a0: 72d6 07bc f63f 9f38 926a 033d 2b38 8ebd
000000b0: 2500 973b e365 aabd f1fb 8bbd 191a 6dbd
000000c0: 538c 8dbd 0b32 a4bd 418a 0f3d 76cb e0bc
000000d0: b4ac 2c3d 0924 a7bd 8c73 a63d ce07 ccbd
000000e0: ab15 083c 3d18 883d e509 9b3d 1b32 73bc
000000f0: b6a9 ac3d afe9 9b3d 9e6d a93c 1eed d63d
00000100: dd73 8f3c 260c 3d3d 5baf b0bd 5a84 aa3d
00000110: 711f 193d a607 783c 26d9 c53d 1492 a43d
00000120: 03dc 7ebc 629c 0dbd 34bf 2fba 398a 623b
00000130: 133d 483b 9639 963d f7ca d83c 5271 0e3d
00000140: 6b4b 55bd a6bc 2e3d 0bc1 85bb fffd f13c
00000150: 67cf e4bc 328b 9bbd ec44 07bd ad4f 6c3d
00000160: 912f 4bbd 1f6a 22bd 8770 f03d 49ea 2b3d
00000170: 1071 4a3d f627 cabd 70b4 12bd 93ce 983c
00000180: f0e9 5d3d ad1f fb3c ae93 e73d c94a 48bd
00000190: b08d f03d 4968 7a3d eecb 5cbc d3b3 a4bd
000001a0: cd03 123d c935 59bd c29f acbd 079f 81bb
000001b0: 68a5 7c3d 4cd3 d9bb 3265 da3c 8990 093d
000001c0: 6be6 c93c 11c4 cc3b 3c19 e3bd 01d1 a4bd
000001d0: 758c c6bd a4fb 7fbd c590 933d 5438 76bd
000001e0: 8b61 073d 4104 813d 6aa0 e2ba 65f8 e3bd
000001f0: f8cf a23d 38b1 743d 3198 cc3d c1bf 97bd
00000200: 3f53 cebc f3ea 26bd 25d2 d73d d408 41bd
00000210: 18f1 c8bd 6a55 0abc 5e60 743d ab7a aa3d
00000220: 92fb e7bb 3f00 0d3d 59d5 5d3c 88ea e83c
00000230: 0661 583c 7b59 c53c 5a94 a43d 7cc6 c83d
00000240: 81fd 6c3d f4bb a73d 1404 be3d c279 c03d
00000250: eff7 c7bd d175 b5bd 5b1b e93d 4530 e2bd
00000260: e979 aebd 73e3 9abd 9988 bdbd 74b6 b6bd
00000270: 5a97 d8bd f970 2c3b 237e a93d c5c0 c53d
00000280: 69fe 1abb c1eb f73b 7336 a0bd 5eb8 1cbd
00000290: 6322 8dbd 6e1b 703d a72a a1bd a12b e53d
000002a0: 2f31 aebc bdc5 8dbd 2508 eb3d d0ac 7fbd
000002b0: e38b c3bc 44ee ebbd 3844 a43b 126b 763d
000002c0: d279 a0bd da40 de3d 8d16 37bd 80be 8a3c
000002d0: 6aa6 d4bd 51d2 11bd 3884 01bd e5fa dabd
000002e0: 46fb 61bd 7aae 22bd 4f1f c1bc f989 c63d
000002f0: ded9 a5bc 334e c93d d242 06bd 3044 97bd
00000300: d935 3dbd f032 c2bd d779 683d 1c9f acbb
00000310: da88 513d 4f82 f2bc fcf0 93bd d500 9f3d
00000320: de0b 18bd 54de a5bc 0ff0 38ba 7b0f 97bd
00000330: c410 b8bd ef46 b2bd 486b dd3c 38d3 a23d
00000340: 3af6 e3bc 0f1f c8bd 4ca5 1b3d 582b c73d
00000350: 3b4d 34bd b520 6bbd 57c6 d4bd 985b a93d
00000360: 72e8 b7bd 3c80 473d 0de0 c93d 154b 5b3d
00000370: 63ae 813a 3997 ebbd af3b bfbc 7023 a5bd
00000380: 31a6 e13d 157f 3e3d bd24 483c a298 933d
00000390: cd82 d93c 5a87 99bc 9b5e debd de76 853d
000003a0: 36e6 eabd 8ed9 de3d d61f 9a3b 3a3c 90bd
000003b0: a4ce a63d 3b43 813b f0d6 c03d 44f8 db3c
000003c0: d4d2 b93b a044 9dbd 8d68 b93d f432 493d
000003d0: dff2 94bd aa30 303d ea69 6abd 3937 0c3d
000003e0: d867 95bc bba2 2a3d b99a 653d 07ed 193d
000003f0: 614a 90bd 358a d6bd ae8a d8bd d1a3 3b3d

encoder.1.encoder.3.bias f4 [8]
0.01682099 0.107372515 0.0719124 -0.03592792 0.050502922 0.036471106 0.11739518 -0.0372114
00000000: 2ccc 893c 1fe6 db3d cf46 933d 2829 13bd
00000010: 27dc 4e3d ba62 153d e26c f03d fb6a 18bd

encoder.1.encoder.5.weight f4 [8]
0.99982315 0.9997916 1.0001014 1.000199 1.0001384 1.0002623 0.99985176 1.0002522
00000000: 69f4 7f3f 58f2 7f3f 5303 803f 8506 803f
00000010: 8904 803f 9808 803f 49f6 7f3f 4408 803f

encoder.1.encoder.5.bias f4 [8]
0.00014864792 -2.7554408e-05 -0.00026836485 -0.00011056648 0.00021565668 0.00010312519 0.00024676905 0.00016667716
00000000: 5fde 1b39 a424 e7b7 52b3 8cb9 eddf e7b8
00000010: e621 6239 ea44 d838 c860 8139 0fc6 2e39

encoder.2.encoder.0.weight f4 [16, 8, 3, 3]
0.11126463 -0.047952816 0.0064756293 0.00044237115 0.052591395 -0.03924466 0.0013637932 0.10148029
0.09921333 -0.09965096 -0.067327194 0.08448201 0.07548797 -0.05716042 0.10668802 -0.010505515
-0.029146776 0.043591868 -0.1057048 -0.044170536 -0.017288432 -0.060761545 -0.08991566 0.040566947
-0.11316071 -0.04384133 -0.09513904 0.037406042 0.079766884 -0.063438036 -0.0142860385 0.043922577
0.07122007 0.09295011 0.057762705 -0.09595949 -0.0040413192 0.0964123 0.031553723 0.04980917
-0.053323027 -0.022157796 0.010560418 0.03809787 -0.0685519 0.06704944 -0.11262999 -0.09612762
0.095630944 -0.104622446 -0.050048623 0.057625398 -0.04673615 -0.0012547781 0.05579772 0.039971355
0.088515185 -0.081945226 -0.002482987 0.02648009 0.021587359 -0.009007649 0.018545864 -0.048445262
0.021598628 0.006938664 -0.113874115 0.062231008 0.03159093 0.021106638 -0.012871482 0.07432972
-0.03987808 0.07278409 -0.07624459 0.038605057 0.11607657 -0.045680128 0.015184811 0.045879465
0.03019015 -0.0811195 -0.036294457 -0.030147111 0.07334751 -0.086859025 0.005922336 0.057642758
-0.10779421 -0.110531144 0.024242148 -0.08459578 0.052698344 -0.076113135 -0.08617854 0.10635741
-0.08138552 -0.11108775 -0.11363797 -0.039109338 0.09522092 -0.0945309 0.1021458 -0.09528388
-0.019498808 0.11723658 0.07169466 -0.023341015 -0.11342516 0.03992907 0.074776284 0.069465026
0.019983506 0.10340042 0.052794937 -0.11215137 -0.019632226 0.007023732 0.009326603 -0.08895314
-0.029330233 0.04304265 -0.11170226 0.09813271 -0.07223335 0.062519014 -0.024742069 0.07501481
-0.116238825 0.024225047 -0.06935153 -0.008049751 -0.11509995 -0.116690345 -0.111507624 0.04550927
-0.1047433 -0.08507903 0.010681928 -0.108628124 0.015297967 -0.024896787 0.08072719 0.09871018
0.09795186 -0.087079294 -0.11133701 -0.107608065 -0.06813219 -0.0029403628 0.06767025 -0.055578995
-0.07944011 0.050332338 0.012776306 -0.0077060643 0.0587536 0.06495047 -0.011981754 -0.08147302
0.047915883 -0.017600935 -0.096404664 0.08702408 0.06706285 0.04052508 0.06552765 -0.059531372
0.07957863 0.070036 0.0587213 -0.0084093055 0.10847507 0.09535292 -0.07922623 0.012863872
0.03158416 0.077857226 0.020251054 -0.05155686 -0.0628048 0.047383264 -0.029411709 -0.041789006
-0.079342894 -0.030463662 0.0002640103 -0.101389624 0.060754348 0.021441896 -0.06009175 -0.08748407
-0.058984723 -0.09387063 0.11428181 0.009269345 0.0851836 0.057859577 -0.11127597 0.064221926
0.09322801 -0.11689989 -0.04205669 0.066980705 0.09661684 0.02341755 -0.039921064 -0.08718691
0.054299314 -0.10613546 0.035006184 -0.063945755 0.0787417 0.009344589 0.02683811 0.03769279
0.043604225 -0.019959692 -0.01218142 -0.015755069 0.10930824 -0.08632551 0.103182785 -0.07721455
-0.112977795 -0.09143571 0.026676804 0.11535382 -0.069396324 -0.094796695 -0.05688691 -0.040943105
-0.010416684 -0.045584064 -0.101679124 -0.08472198 -0.09471062 -0.09009323 -0.072465844 0.083997615
-0.0052964687 0.02107603 -0.10033823 0.07086669 0.0033729062 0.08887037 -0.09420934 0.0475586
-0.024215307 -0.087972075 0.04705153 0.071493596 0.109779194 -0.10031499 -0.007444775 0.0880489
00000000: b6de e33d 2c6a 44bd 8431 d43b 0dee e739
00000010: 136a 573d 02bf 20bd 4ec1 b23a e6d4 cf3d
00000020: 5c30 cb3d cd15 ccbd d7e2 89bd e704 ad3d
00000030: 7099 9a3d 0b21 6abd 407f da3d 531f 2cbc
00000040: 38c5 eebc 638d 323d c27b d8bd 2aec 34bd
00000050: 78a0 8dbc 19e1 78bd b425 b8bd 8729 263d
00000060: cdc0 e7bd f792 33bd 42d8 c2bd 1437 193d
00000070: d25c a33d cdeb 81bd fd0f 6abc 29e8 333d
00000080: d4db 913d a15c be3d 9698 6c3d 6986 c4bd
00000090: 0b6d 84bb d073 c53d 7a3e 013d b304 4c3d
000000a0: 3f69 5abd 4484 b5bc 9a05 2d3c 830c 1c3d
000000b0: f064 8cbd 3851 893d 8daa e6bd 8fde c4bd
000000c0: 28da c33d 4b44 d6bd c9ff 4cbd 9c08 6c3d
000000d0: 686e 3fbd 5e77 a4ba 268c 643d 01b9 233d
000000e0: 7347 b53d e6d2 a7bd 9cb9 22bb c6ec d83c
000000f0: f9d7 b03c d194 13bc 7fed 973c 8a6e 46bd
00000100: 9bef b03c bb5d e33b d536 e9bd f1e5 7e3d
00000110: 7e65 013d d4e7 ac3c e9e2 52bc 2e3a 983d
00000120: 3357 23bd d30f 953d 2026 9cbd 5620 1e3d
00000130: 8db9 ed3d 161b 3bbd b7c9 783c 1bec 3b3d
00000140: 5551 f73c fb21 a6bd 7fa9 14bd 13f7 f6bc
00000150: 3837 963d 25e3 b1bd 2810 c23b d01a 6c3d
00000160: 36c3 dcbd 275e e2bd 7897 c63c 8d40 adbd
00000170: 38da 573d 34e1 9bbd 607e b0bd ead1 d93d
00000180: 74ad a6bd f981 e3bd 06bb e8bd 1d31 20bd
00000190: 3003 c33d 6b99 c1bd d131 d13d 3224 c3bd
000001a0: f7bb 9fbc bb19 f03d a6d4 923d a835 bfbc
000001b0: 734b e8bd aa8c 233d 4f24 993d ae43 8e3d
000001c0: 73b4 a33c 99c3 d33d 813f 583d 9eaf e5bd
000001d0: c3d3 a0bc 5627 e63b 9cce 183c 102d b6bd
000001e0: f545 f0bc 7d4d 303d 28c4 e4bd cdf9 c83d
000001f0: 14ef 93bd f809 803d e1af cabc 5da1 993d
00000200: 9f0e eebd 9b73 c63c 2d08 8ebd 1ae3 03bc
00000210: 86b9 ebbd 59fb eebd 1c5e e4bd ee67 3a3d
00000220: a883 d6bd ea3d aebd 4103 2f3c 6c78 debd
00000230: 53a4 7a3c 59f4 cbbc 4c54 a53d 9028 ca3d
00000240: fc9a c83d a156 b2bd a904 e4bd 9e61 dcbd
00000250: e488 8bbd 1ab3 40bb b396 8a3d cda6 63bd
00000260: 7fb1 a2bd 4829 4e3d b653 513c 2783 fcbb
00000270: 9da7 703d c104 853d 1e4f 44bc 54db a6bd
00000280: 7243 443d d62f 90bc cf6f c5bd ae39 b23d
00000290: 3f58 893d a0fd 253d 5c33 863d 2bd7 73bd
000002a0: 1ffa a23d 096f 8f3d bf85 703d 2fc7 09bc
000002b0: 2d28 de3d 6448 c33d 5d41 a2bd fdc2 523c
000002c0: 645e 013d 9c73 9f3d 8ae5 a53c 492d 53bd
000002d0: ce9f 80bd f414 423d d3f0 f0bc f32a 2bbd
000002e0: 877e a2bd ee8e f9bc dd6a 8a39 5da5 cfbd
000002f0: 8dd9 783d eaa6 af3c c422 76bd d92a b3bd
00000300: f799 71bd 3f3f c0bd 950c ea3d 73de 173c
00000310: bd74 ae3d 2afe 6c3d a8e4 e3bd c986 833d
00000320: 54ee be3d 3669 efbd a343 2cbd 2e2d 893d
00000330: 0ddf c53d 29d6 bf3c 4584 23bd 0d8f b2bd
00000340: f568 5e3d 8c5d d9bd a562 0f3d fef5 82bd
00000350: 5443 a13d 0c1a 193c 99db db3c c163 1a3d
00000360: 589a 323d 8282 a3bc 9494 47bc c610 81bc
00000370: 00dd df3d 6ecb b0bd 7f51 d33d a922 9ebd
00000380: e760 e7bd a542 bbbd 5089 da3c a03e ec3d
00000390: a91f 8ebd c524 c2bd 4002 69bd f5b3 27bd
000003a0: bdaa 2abc 5bb6 3abd 253d d0bd b882 adbd
000003b0: a4f7 c1bd cd82 b8bd f968 94bd f106 ac3d
000003c0: 008e adbb a3a7 ac3c 217e cdbd 8e22 913d
000003d0: fa0b 5d3b ab01 b63d d4f0 c0bd cecc 423d
000003e0: 2e5f c6bc b42a b4bd 1bb9 403d 3c6b 923d
000003f0: ead3 e03d f271 cdbd 4df3 f3bb fb52 b43d

encoder.2.encoder.0.bias f4 [16]
0.06753201 0.107454166 0.017519632 0.019848172 0.00080783985 0.0049441345 -0.0014427678 0.09008392
0.10337371 -0.013216292 0.049072497 0.08967022 -0.054340478 -0.040898733 -0.08446215 0.057066508
00000000: 394e 8a3d ee10 dc3d 5585 8f3c a298 a23c
00000010: 37c5 533a 6802 a23b 411b bdba eb7d b83d
00000020: 98b5 d33d 2589 58bc 3e00 493d 05a5 b73d
00000030: 1f94 5ebd 6e85 27bd 7efa acbd 92be 693d

encoder.2.encoder.2.weight f4 [16]
0.99979615 0.99971294 0.99975485 1.0002329 1.000206 0.99988943 1.0001925 1.0002238
1.0000885 0.99976486 1.0001895 1.0002655 0.99989086 0.999822 0.99973667 1.0000871
00000000: a4f2 7f3f 30ed 7f3f efef 7f3f a207 803f
00000010: c006 803f c1f8 7f3f 4f06 803f 5507 803f
00000020: e602 803f 97f0 7f3f 3606 803f b308 803f
00000030: d9f8 7f3f 56f4 7f3f beee 7f3f db02 803f

encoder.2.encoder.2.bias f4 [16]
-0.00013572603 1.6683745e-05 0.00027902104 -0.00015163212 0.00021477995 -0.00025301715 0.00013373594 -0.00027033803
-0.00012214661 0.00025375033 -0.00020485117 -0.00018261143 0.00010916608 -2.004216e-05 0.00020794844 0.00019997776
00000000: ae51 0eb9 12f4 8b37 9249 9239 70ff 1eb9
00000010: 8e36 6139 63a7 84b9 783b 0c39 28bc 8db9
00000020: 7b14 00b9 cb09 8539 51cd 56b9 627b 3fb9
00000030: 18f0 e438 3620 a8b7 bc0c 5a39 1fb1 5139

encoder.2.encoder.3.weight f4 [16, 16, 3, 3]
-0.008978991 0.06252462 0.028411603 0.03794842 -0.071272425 0.04300716 0.020711403 -0.02437339
-0.022017583 0.07162542 -0.0664934 0.05421302 -0.0040581673 -0.060779408 -0.027631648 -0.051074516
-0.081968725 -0.012359564 0.0018269108 -0.02227918 0.0053206575 -0.036936212 0.08141412 -0.062014565
-0.07817562 -0.021586489 0.065583356 0.03921236 -0.014555893 -0.059605084 0.071406916 0.009159182
0.008099575 -0.08018521 0.03911047 -0.01077323 -0.07956219 -0.01642598 0.019717861 0.043550514
0.03686089 -0.042972445 -0.034397162 -0.021397913 -0.021153888 0.059008062 0.08065713 0.07335218
-0.0004488388 0.06257082 -0.0010547419 -0.08176631 -0.03864537 -0.032303017 0.013384577 0.045570128
-0.020614496 0.040305678 0.0054420405 0.001519454 0.016732393 -0.031218486 -0.07360511 -0.044379696
-0.05699273 0.020643493 0.052232627 0.018701132 -0.026092969 0.019785061 -0.077550046 0.023804627
-0.04812487 -0.05937157 -0.027381042 0.073233776 -0.052585274 -0.014118626 0.022265108 0.01665167
0.03576234 0.0251037 -0.005985399 0.007487056 0.06430517 0.077813685 -0.08102067 0.0040851557
-0.04110001 0.060165104 0.0729254 0.04240012 0.013277999 -0.019236362 0.051050674 0.009716757
0.016460413 0.034496684 -0.02521063 -0.041369654 0.011838133 0.053171247 0.060989007 0.067806035
-0.07668542 -0.05033565 0.045203596 0.07984121 -0.07444357 0.049976513 0.046570882 -0.01770484
-0.023178825 -0.0034140404 -0.05660632 -0.08021741 -0.0412897 -0.062196355 0.07383452 -0.072792605
0.020652175 0.06872191 -0.05546694 0.0768594 0.05070819 -0.04675673 0.061229117 -0.042422693
0.020091798 -0.029718231 0.033709213 -0.05312884 0.059427727 -0.057656523 -0.0404997 0.042431526
0.044761326 -0.029910536 -0.0377983 0.04579511 -0.041489296 -0.08190747 0.04529297 0.051498793
-0.004033478 -0.04488559 -0.051378824 0.0067489115 0.081105985 -0.06248478 0.08064203 0.044437267
-0.013173351 -0.018483868 0.028420974 0.07959843 -0.048506603 -0.045268826 -0.034385554 -0.03601045
0.046705075 -0.01243133 0.023818187 -0.037138302 -0.02040377 -0.07223383 0.019887669 0.061070636
0.04072688 -0.047733616 0.03345713 -0.019239685 -0.07921313 0.0072430614 -0.05982905 0.06959249
-0.06710725 0.05342703 -0.027447622 0.08230926 -0.06923992 -0.0005310698 0.02785594 0.011611371
-0.0028417176 -0.046290386 -0.01889726 0.012472908 -0.030316321 -0.0006039342 0.055825938 0.067399226
-0.048938114 -0.04436192 0.04669597 0.048370484 -0.07409374 -0.05908027 0.08001557 0.059860423
0.036464315 0.007731124 -0.009209207 0.008014961 -0.0048527583 0.038789973 0.06962993 0.03912648
-0.08160758 -0.024334846 -0.015561364 -0.054481316 0.024448436 0.04234332 -0.08273376 -0.024130948
-0.043572616 0.02794289 -0.056304395 -0.019903228 -0.08225307 0.010391936 0.053160373 0.03658579
0.054936126 -0.07228111 0.063779555 -0.05968808 0.050668932 -0.08332626 0.07092086 -0.013328773
-0.020729816 0.08120171 -0.018836005 0.07637657 -0.04472003 -0.077473454 -0.074731454 0.020841869
0.008153534 -0.080914244 0.053431265 0.05162596 -0.044654246 -0.038125478 -0.024857918 -0.0076421234
0.062588915 0.060674638 -0.053498477 0.009852963 0.000112442634 -0.048715994 -0.057917368 -0.081574865
00000000: 9e1c 13bc e80c 803d 73bf e83c cd6f 1b3d
00000010: 47f7 91bd 4728 303d f6aa a93c b4aa c7bc
00000020: 385e b4bc 59b0 923d b12d 88bd 790e 5e3d
00000030: 60fa 84bb d4f3 78bd c45b e2bc 8333 51bd
00000040: 38df a7bd c57f 4abc f474 ef3a d482 b6bc
00000050: e958 ae3b 6d4a 17bd 72bc a63d fc02 7ebd
00000060: 8a1a a0bd 26d6 b0bc 9150 863d 249d 203d
00000070: d77b 6ebc 7624 74bd ca3d 923d 6510 163c
00000080: 14b4 043c 2538 a4bd 4d32 203d 3482 30bc
00000090: 80f1 a2bd c78f 86bc 5a87 a13c 0662 323d
000000a0: 72fb 163d e003 30bd 0ae4 0cbd ad4a afbc
000000b0: eb4a adbc 70b2 713d 912f a53d ab39 963d
000000c0: 2052 ebb9 2125 803d 443f 8aba 1875 a7bd
000000d0: 9c4a 1ebd 2b50 04bd fc4a 5b3c bea7 3a3d
000000e0: bbdf a8bc 9117 253d 2553 b23b 6a28 c73a
000000f0: 5f12 893c e9bd ffbc 47be 96bd 7cc7 35bd
00000100: 3571 69bd 8b1c a93c e1f1 553d 1e33 993c
00000110: ecc0 d5bc 4814 a23c 8fd2 9ebd ec01 c33c
00000120: 951e 45bd 9a2f 73bd 354e e0bc 97fb 953d
00000130: a863 57bd cf51 67bc 5165 b63c 1569 883c
00000140: 887b 123d 46a6 cd3c 2a21 c4bb fa55 f53b
00000150: 6eb2 833d c85c 9f3d 2aee a5bd c5dc 853b
00000160: 7c58 28bd af6f 763d ea59 953d c0ab 2d3d
00000170: f78b 593c 9395 9dbc 831a 513d 0833 1f3c
00000180: fdd7 863c 654c 0d3d 8686 cebc 3a73 29bd
00000190: bbf4 413c 18ca 593d 9ccf 793d e4dd 8a3d
000001a0: 3f0d 9dbd c12c 4ebd 6827 393d ca83 a33d
000001b0: df75 98bd 2cb4 4c3d 1cc1 3e3d be09 91bc
000001c0: 85e1 bdbc 18be 5fbb 07dc 67bd 0749 a4bd
000001d0: 631f 29bd 9bc1 7ebd 8e36 973d 4a14 95bd
000001e0: c02e a93c 13be 8c3d 4d31 63bd 7668 9d3d
000001f0: 64b3 4f3d fc83 3fbd 62cb 7a3d 6bc3 2dbd
00000200: 8e97 a43c a673 f3bc ac12 0a3d a09d 59bd
00000210: 7d6a 733d 3f29 6cbd 03e3 25bd aecc 2d3d
00000220: a757 373d f106 f5bc 64d2 1abd a793 3b3d
00000230: aef0 29bd 1bbf a7bd 1f85 393d 66f0 523d
00000240: 442b 84bb f4d9 37bd 9a72 52bd f925 dd3b
00000250: e51a a63d 0af0 7fbd a627 a53d da03 363d
00000260: 0ad5 57bc 7b6b 97bc 1ad3 e83c 8004 a33d
00000270: dcae 46bd ce6b 39bd ded7 0cbd b27f 13bd
00000280: d24d 3f3d c7ac 4bbc 5c1e c33c 551e 18bd
00000290: cf25 a7bc 55ef 93bd 77eb a23c 3425 7a3d
000002a0: 3bd1 263d 5384 43bd 580a 093d 8b9c 9dbc
000002b0: 7e3a a2bd 3457 ed3b 4e0f 75bd 8286 8e3d
000002c0: 876f 89bd 4dd6 5a3d d6d9 e0bc c291 a83d
000002d0: a9cd 8dbd 7e37 0bba 2432 e43c 9f3d 3e3c
000002e0: 1c3c 3abb fd9a 3dbd 6dce 9abc 2b5b 4c3c
000002f0: ef59 f8bc 5751 1eba bda9 643d 9b08 8a3d
00000300: 5573 48bd d8b4 35bd 4644 3f3d 2120 463d
00000310: 75be 97bd 27fe 71bd 34df a33d 3430 753d
00000320: 9b5b 153d 5e55 fd3b 37e2 16bc 2f51 033c
00000330: e303 9fbb 3ce2 1e3d 239a 8e3d 1743 203d
00000340: e021 a7bd df59 c7bc 17f5 7ebc cd27 5fbd
00000350: 1648 c83c 3070 2d3d 5170 a9bd 44ae c5bc
00000360: 3379 32bd 7de8 e43c 709f 66bd 180c a3bc
00000370: 4c74 a8bd f042 2a3c b1be 593d fbda 153d
00000380: b404 613d 1e08 94bd db9e 823d 7d7b 74bd
00000390: 3a8a 4f3d f5a6 aabd f53e 913d ed60 5abc
000003a0: 93d1 a9bc 154d a63d f74d 9abc 526b 9c3d
000003b0: 5a2c 37bd 67aa 9ebd ce0c 99bd 91bc aa3c
000003c0: 6696 053c 5eb6 a5bd beda 5a3d be75 533d
000003d0: 5fe7 36bd 7629 1cbd d5a2 cbbc c76a fabb
000003e0: 9e2e 803d f885 783d 3821 5bbd 526e 213c
000003f0: 2ecf eb38 6c8a 47bd c33a 6dbd b910 a7bd

encoder.2.encoder.3.bias f4 [16]
0.003881687 -0.043177515 -0.0029036724 -0.07178708 -0.02289737 0.030024182 0.06869643 0.041205425
0.05102265 -0.04811192 -0.018890867 -0.060638662 0.055960182 0.023525542 -0.009183389 -0.05115097
00000000: e763 7e3b e8da 30bd 8a4b 3ebb 1b05 93bd
00000010: 4493 bbbc 46f5 f53c b7b0 8c3d 05c7 283d
00000020: 20fd 503d 0111 45bd 05c1 9abc 3f60 78bd
00000030: 8136 653d a3b8 c03c ed75 16bc ae83 51bd

encoder.2.encoder.5.weight f4 [16]
1.0001674 1.000237 1.0002578 0.99979234 0.99983704 1.0001855 1.0002539 1.0001638
0.9997706 1.0002354 1.0001156 1.0002941 0.9997431 1.0002023 0.99976254 0.9998159
00000000: 7c05 803f c407 803f 7308 803f 64f2 7f3f
00000010: 52f5 7f3f 1406 803f 5208 803f 5e05 803f
00000020: f7f0 7f3f b707 803f ca03 803f a309 803f
00000030: 2aef 7f3f a106 803f 70f0 7f3f eff3 7f3f

encoder.2.encoder.5.bias f4 [16]
-0.00017326865 0.0002525618 -3.4151963e-05 0.00012361612 0.00023115831 -0.00016542786 4.049891e-05 0.00015909773
-0.00020851358 -0.00023635932 -0.00027430314 0.00022672888 -0.0001004362 0.00019531511 -0.0001939497 -0.00020108066
00000000: 73af 35b9 456a 8439 643e 0fb8 f39e 0139
00000010: 1663 7239 b476 2db9 60dd 2938 79d3 2639
00000020: 70a4 5ab9 39d7 77b9 58d0 8fb9 12be 6d39
00000030: 46a1 d2b8 80cd 4c39 fa5e 4bb9 2ed9 52b9

encoder.3.encoder.0.weight f4 [32, 16, 3, 3]
-0.036370855 -0.05603105 -0.067385934 0.002097018 0.08209096 0.045346864 0.05250465 0.06703489
-0.07175797 -0.080407254 -0.011351831 0.076883115 -0.07270055 -0.0034860882 -0.012467466 -0.024320208
0.07488599 0.012610368 0.072991244 -0.032685786 -0.048001867 -0.0064839795 0.07427064 -0.054397773
-0.0336851 0.031487316 0.033362985 -0.029973708 0.04514662 0.06867925 -0.048619173 -0.035116035
0.04271 -0.0061107874 0.053359635 0.012072951 -0.08168633 -0.03119893 -0.027887069 0.035224207
0.07507131 0.047977664 -0.033180606 0.07484924 0.008626036 0.010139994 -0.0118462145 0.014528312
0.029492676 -0.008922584 -0.07004851 0.0017013922 0.07784865 -0.06446894 -0.024215817 -0.064548425
0.05315789 0.04345914 0.060659762 0.043103047 -0.05000214 -0.07409157 -0.066835135 -0.031172872
0.049419127 -0.070243165 -0.048484832 0.037153386 -0.06520674 -0.03140726 -0.005775243 -0.012632303
-0.02313621 0.06998209 -0.01844573 -0.07021933 0.07578841 -0.0006892979 -0.04667326 -0.070380315
-0.0035628974 0.07312188 0.0095336065 0.02196487 0.070245184 -0.040917616 0.047082074 0.010168731
0.05663974 0.0059228465 0.04816536 -0.052619718 0.013261549 -0.06115734 0.0047769053 -0.022895932
-0.039008133 0.07655466 0.016640402 -0.013094418 0.055127688 0.0709546 -0.06300735 -0.017041467
0.0054993555 0.072951294 0.0737915 -0.057130963 0.06278839 -0.041859567 -0.078459255 0.0011153221
0.0342731 -0.044604093 0.050259985 0.031948656 -0.007889815 0.009491898 0.03604699 -0.012210868
0.05498936 0.023965294 -0.079521775 -0.03352049 0.054877616 -0.017325737 -0.003842242 0.055367507
-0.054616034 0.061970077 -0.065836556 0.029435605 -0.0012977347 0.05430872 -0.05358249 -0.056109875
-0.05868765 -0.009801112 -0.04186949 0.045767836 0.03632929 -0.070052415 -0.020194717 -0.03851841
0.043585636 0.027597725 -0.07181889 0.062700324 -0.07188507 0.01882112 0.052836813 -0.027005635
-0.0553992 -0.036357265 -0.0065981373 -0.053307496 0.0527127 -0.056552336 -0.0744009 0.023270726
-0.031002544 0.07686301 -0.008907966 0.025110513 0.07927897 0.033157982 -0.03920738 0.033351876
-0.036372602 -0.079088 -0.049348764 0.06286255 0.04670713 -0.025700897 -0.061097126 0.036818743
0.07943907 -0.04769963 -0.055612773 -0.01762072 0.030854635 -0.05888032 -0.04161331 0.020573802
0.056374226 -0.047297053 -0.02732446 0.040667854 0.06639633 0.025788449 0.03822679 0.015122168
0.04856796 -0.032531347 -0.0765121 0.0020594522 0.06853477 -0.03633123 -0.015720494 -0.055819582
-0.013191611 -0.06241762 0.07120203 -0.026809942 -0.034275394 -0.052133124 0.00044166297 -0.016172446
0.015606426 0.04912301 -0.07222577 0.06682947 -0.01180049 -0.05949853 -0.022514723 -0.06668492
0.04314881 -0.071341686 -0.052256554 0.040337235 0.050840463 0.06777982 -0.073282056 0.016122729
-0.0028907657 0.07352228 0.0723714 -0.00072047114 0.037815362 -0.011176252 0.07950645 -0.05744668
0.02647511 0.056250192 0.06442032 0.070144124 0.0657495 0.046698637 -0.07556935 0.004797347
0.030870743 0.02255755 0.025348693 -0.0387586 0.04775045 -0.046995413 -0.04647156 -0.060521312
0.04131157 0.022202559 -0.03480559 0.044398107 -0.06782832 0.041773148 0.04477731 -0.06550501
00000000: 9bf9 14bd d080 65bd a301 8abd 206e 093b
00000010: 4e1f a83d a2bd 393d 1e0f 573d 9749 893d
00000020: d8f5 92bd 8fac a4bd 08fd 39bc e574 9d3d
00000030: 07e4 94bd db76 64bb 5844 4cbc 2c3b c7bc
00000040: d35d 993d b89b 4e3c 6f7c 953d 88e1 05bd
00000050: 9b9d 44bd 9077 d4bb 351b 983d 33d0 5ebd
00000060: 63f9 09bd d8f8 003d a0a7 083d 6c8b f5bc
00000070: aaeb 383d b5a7 8c3d e624 47bd d5d5 0fbd
00000080: aef0 2e3d 003d c8bb a28f 5a3d a0cd 453c
00000090: 2a4b a7bd e694 ffbc 6c73 e4bc 4247 103d
000000a0: fdbe 993d 3a84 443d 63e8 07bd 8f4a 993d
000000b0: 3854 0d3c 3822 263c a016 42bc 2808 6e3c
000000c0: a09a f13c 0830 12bc 9875 8fbd 4001 df3a
000000d0: 1d6f 9f3d 4b08 84bd 4060 c6bc f731 84bd
000000e0: 16bc 593d 3602 323d 5f76 783d d28c 303d
000000f0: 0bcf 4cbd 52bd 97bd dce0 88bd 405e ffbc
00000100: b66b 4a3d a6db 8fbd 0898 46bd 262e 183d
00000110: 1c8b 85bd e6a4 00bd 403e bdbb b8f7 4ebc
00000120: 2688 bdbc c552 8f3d 801b 97bc 27cf 8fbd
00000130: f436 9b3d 00b2 34ba 762c 3fbd 8e23 90bd
00000140: 807f 69bb edc0 953d d832 1c3c acef b33c
00000150: b5dc 8f3d 3b99 27bd 22d9 403d c09a 263c
00000160: 12ff 673d 7014 c23b 0a49 453d c687 57bd
00000170: f846 593c 1e80 7abd 9687 9c3b 4090 bbbc
00000180: fec6 1fbd b1c8 9c3d 7451 883c f889 56bc
00000190: 92cd 613d a550 913d ff09 81bd 8c9a 8bbc
000001a0: f033 b43b 7d67 953d ff1f 973d 2802 6abd
000001b0: 3397 803d f074 2bbd 3faf a0bd 0030 923a
000001c0: f361 0c3d c8b2 36bd 6add 4d3d 98dc 023d
000001d0: 4844 01bc e883 1b3c 02a6 133d 1810 48bc
000001e0: 863c 613d dd52 c43c 50dc a2bd c84c 09bd
000001f0: 5ac7 603d b4ee 8dbc 20ce 7bbb 0ac9 623d
00000200: 10b5 5fbd 56d4 7d3d 51d5 86bd f022 f13c
00000210: c018 aaba d272 5e3d 5079 5bbd 78d3 65bd
00000220: 7662 70bd d894 20bc 587f 2bbd 0e77 3b3d
00000230: 06ce 143d a477 8fbd 646f a5bc 7bc5 1dbd
00000240: da86 323d a014 e23c c815 93bd 0769 803d
00000250: 7b38 93bd c02e 9a3c 6a6b 583d ec3a ddbc
00000260: 46ea 62bd 5beb 14bd 3035 d8bb f658 5abd
00000270: 46e9 573d 6ca3 67bd 805f 98bd 40a2 be3c
00000280: 0cf9 fdbc 5b6a 9d3d b8f2 11bc 90b4 cd3c
00000290: 035d a23d aad0 073d eb97 20bd fa9b 083d
000002a0: 70fb 14bd e4f8 a1bd ee21 4abd 15be 803d
000002b0: fa4f 3f3d b08a d2bc fb40 7abd 40cf 163d
000002c0: f3b0 a23d b060 43bd 38ca 63bd 5459 90bc
000002d0: dcc2 fc3c 7e2c 71bd b872 2abd 648a a83c
000002e0: a9e8 663d 8eba 41bd 8cd7 dfbc 5693 263d
000002f0: cdfa 873d 4c42 d33c b293 1c3d f8c2 773c
00000300: 32ef 463d 973f 05bd 60b2 9cbd e0f7 063b
00000310: f55b 8c3d 0ed0 14bd 44c8 80bc 13a3 64bd
00000320: a021 58bc 9ea9 7fbd 5fd2 913d 86a0 dbbc
00000330: 5b64 0cbd 8b89 55bd 008f e739 147c 84bc
00000340: 18b2 7f3c 3635 493d 1beb 93bd e4dd 883d
00000350: d856 41bc bbb4 73bd cc70 b8bc 1a92 88bd
00000360: cebc 303d 971b 92bd f80a 56bd a838 253d
00000370: 173e 503d 25d0 8a3d e714 96bd d013 843c
00000380: 0073 3dbb d992 963d 7537 943d 00de 3cba
00000390: 48e4 1a3d 991c 37bc 47d4 a23d 364d 6bbd
000003a0: 54e2 d83c 9a66 663d cdee 833d b9a7 8f3d
000003b0: ada7 863d 1247 3f3d 1ac4 9abd 1033 9d3b
000003c0: a4e4 fc3c 9cca b83c 10a8 cf3c 56c1 1ebd
000003d0: fa95 433d 437e 40bd f658 3ebd 32e5 77bd
000003e0: 5236 293d 24e2 b53c 4e90 0ebd cada 353d
000003f0: 93e9 8abd 521a 2b3d 6a68 373d 7e27 86bd

encoder.3.encoder.0.bias f4 [32]
-0.07607315 -0.051503666 0.06707699 0.025132883 0.0094849095 0.054186273 0.03284534 0.021295162
-0.014446726 -0.022883845 -0.05982198 -0.04998572 0.06747359 -0.021567838 -0.051076204 -0.05422784
0.012853325 -0.051028874 -0.046278186 -0.031525314 0.0066713355 0.048779063 -0.014192649 0.06644911
-0.037833814 -0.04751277 -0.02728752 -0.024897471 0.059067786 -0.017756615 -0.014407201 -2.2911852e-05
00000000: 3dcc 9bbd 82f5 52bd a95f 893d 7ae3 cd3c
00000010: 9866 1b3c 6df2 5d3d d688 063d 3173 ae3c
00000020: f6b1 6cbc e776 bbbc e407 75bd d4bd 4cbd
00000030: 982f 8a3d 09af b0bc 4835 51bd 031e 5ebd
00000040: c196 523c a703 51bd 328e 3dbd b020 01bd
00000050: 389b da3b 8ecc 473d 4988 68bc 7916 883d
00000060: a1f7 1abd c09c 42bd 148a dfbc c8f5 cbbc
00000070: 10f1 713d 5276 91bc 2e0c 6cbc d432 c0b7

encoder.3.encoder.2.weight f4 [32]
1.0002921 0.9997764 0.99988806 0.99978447 0.99991924 0.9999346 1.0002414 0.99981266
1.0002244 0.9998353 0.9997574 1.0001739 1.0002538 1.0001657 1.0001457 0.9997238
1.0001607 0.9998172 0.99981093 0.9998229 1.000133 0.999915 1.000038 0.9998108
0.9997902 1.0001879 1.000131 1.0001329 1.0000774 0.999838 1.000065 1.0002233
00000000: 9209 803f 59f1 7f3f aaf8 7f3f e0f1 7f3f
00000010: b5fa 7f3f b7fb 7f3f e907 803f b9f3 7f3f
00000020: 5a07 803f 35f5 7f3f 1af0 7f3f b305 803f
00000030: 5108 803f 6e05 803f c604 803f e6ed 7f3f
00000040: 4405 803f 05f4 7f3f 9cf3 7f3f 65f4 7f3f
00000050: 5c04 803f 6efa 7f3f 3f01 803f 9af3 7f3f
00000060: 40f2 7f3f 2806 803f 4b04 803f 5b04 803f
00000070: 8902 803f 62f5 7f3f 2102 803f 5107 803f

encoder.3.encoder.2.bias f4 [32]
-0.00016777542 0.00019851334 -0.00015953276 8.6170105e-05 0.00019878906 -6.770315e-06 -3.656187e-06 -0.00018398778
-0.00022708607 0.00018806335 0.00024655828 -0.00023011048 0.0002525107 -0.00024756018 -5.1472703e-05 0.0002788155
-8.18318e-05 0.00020943364 0.00021324017 0.00020253863 -0.00022458722 -0.00014961844 -0.00019700894 -0.00019698289
0.0001855046 -0.00013213736 -0.00017212005 -0.00013787564 -0.00028052303 -0.00028812885 -0.00018829285 0.00020278044
00000000: dfec 2fb9 0528 5039 4048 27b9 39b6 b438
00000010: 0872 5039 902c e3b6 d05c 75b6 d8ec 40b9
00000020: f41d 6eb9 df32 4539 7e44 8139 d049 71b9
00000030: 6a63 8439 f7ca 81b9 65e4 57b8 fc2d 9239
00000040: 1d9d abb8 6a9b 5b39 3999 5f39 8d60 5439
00000050: 2c7f 6bb9 e5e2 1cb9 2f94 4eb9 318d 4eb9
00000060: 0384 4239 5a8e 0ab9 207b 34b9 b692 10b9
00000070: 2a13 93b9 0010 97b9 7a70 45b9 76a1 5439

encoder.3.encoder.3.weight f4 [32, 32, 3, 3]
0.027267795 -0.0026081875 0.007963706 0.03720649 0.019381681 0.005792152 0.053184245 0.020878088
-0.050228156 -0.027309317 -0.008250099 -0.054779433 0.024844069 -0.024021158 -0.05217054 -0.05356244
-0.03610334 -0.04363877 0.039377768 0.031868707 -0.005879 -0.011289652 -0.026572535 0.03864054
0.0011953488 -0.047493745 0.024664927 0.037187 -0.036354057 0.042852353 -0.056186352 0.021999545
-0.04251256 -0.0011712462 -0.010372713 0.026440155 0.02581251 -0.031052029 0.004377667 0.023565214
-0.005032852 -0.043487847 0.037575062 0.009369578 -0.0035582557 -0.01822472 0.04945569 0.00097258016
0.022265833 0.058494423 -0.050463166 -0.036872458 0.05587336 -0.015096348 -0.043661043 -0.033791363
-0.049659643 0.054879013 0.054182485 -0.018110164 -0.03303525 -0.037528496 -0.01410887 0.03832959
-0.023924582 -0.01834989 -0.009072691 -0.056846004 0.046609078 0.026470784 -0.011069126 -0.017926201
-0.0073485337 -0.023986831 0.03861135 -0.029792484 -0.036926214 -0.054417558 -0.048152212 0.031687003
-0.003794305 0.04471984 0.03190228 -0.020649798 0.011753183 0.0041345507 -0.019069046 -0.049500857
0.048084285 0.036546435 -0.026751455 -0.05488777 -0.018375449 0.02504417 -0.021621795 -0.006607171
-0.05883542 0.003148511 -0.04639785 0.014186788 0.038626615 0.004025463 -0.023248814 0.0374375
-0.05611626 0.030015018 0.00497609 0.050294932 -0.046969187 -0.04895775 -0.041974843 -0.034823857
0.0435545 -0.032479852 -0.03556616 -0.039370447 -0.038365446 0.019995634 0.0415466 0.022258807
0.032446664 0.056170348 0.040285382 0.03168011 -0.019741766 -0.03995382 -0.0292804 0.016013835
0.009708021 0.051526602 -0.040191695 -0.013383675 0.011473689 0.020202715 0.04515351 -0.052867483
-0.049751103 0.007918883 0.018261705 -0.048360214 -0.0035416894 0.020090844 -0.055073105 -0.04052598
0.05014381 -0.048678536 0.044200253 0.033853356 -0.03823769 -0.0074046664 0.047595274 -0.049025375
0.021299195 0.01064783 0.05271027 0.04406553 0.0030104443 -0.029884936 0.043858554 -0.03447958
0.045022283 -0.021544732 0.038129058 -0.02098547 0.05258284 -0.0036170855 0.03788121 0.056724343
0.013640184 -0.011471748 0.048156504 0.05553006 -0.01671794 0.0021106228 -0.043083012 0.027899263
-0.058725994 0.01134463 0.03149132 -0.0032153204 -0.04313665 -0.056673504 -0.015879415 0.055667635
0.0039091664 -0.031427845 0.0052768923 -0.0035248026 0.01575699 -0.041922994 0.023701172 0.038281556
-0.05597464 0.04024463 -0.031193255 -0.029133096 -0.024544913 0.041715633 0.009976681 0.05871504
0.049000416 -0.011005316 0.009896062 -0.026380662 -0.055783812 -0.01811159 -0.028996041 0.032556515
-0.030835822 0.021993626 -0.035223737 0.021218035 -0.05638399 0.055312615 -0.025567684 0.018808927
-0.013589576 -0.0070831776 0.0020123944 0.005145792 -0.013499831 -0.035160817 0.018427704 0.02381267
-0.050847758 0.042736802 0.020880196 -0.043637905 0.04846246 -0.02019446 -0.05108349 0.00076211244
0.01758485 -0.056303028 -0.003187701 0.01511595 0.01530702 0.0022805594 -0.024132956 -0.04599752
0.04870489 0.008195128 -0.013408557 -0.02160373 0.05372723 -0.014860243 -0.027909264 -0.02009415
-0.05269227 0.019671049 -0.046407875 -0.054794878 -0.042114284 0.025750574 -0.050939023 -0.05586369
00000000: b660 df3c 20ee 2abb 347a 023c d565 183d
00000010: 55c6 9e3c 18cc bd3b b9d7 593d 8608 ab3c
00000020: 0abc 4dbd cab7 dfbc 6c2b 07bc 6660 60bd
00000030: ca85 cb3c 05c8 c4bc c7b0 55bd 4a64 5bbd
00000040: 19e1 13bd 91be 32bd 954a 213d c388 023d
00000050: a0a4 c0bb 3cf8 38bc a5ae d9bc 8b45 1e3d
00000060: 40ad 9c3a cd88 42bd 1a0e ca3c 6551 183d
00000070: fee7 14bd f385 2f3d a923 66bd 6438 b43c
00000080: a621 2ebd 8084 99ba 50f2 29bc 0699 d83c
00000090: c274 d33c d360 febc 8872 8f3b d60b c13c
000000a0: 9fea a4bb 5020 32bd 4fe8 193d dc82 193c
000000b0: a031 69bb 024c 95bc 0d92 4a3d c0f4 7e3a
000000c0: d666 b63c d997 6f3d 77b2 4ebd 9307 17bd
000000d0: 77db 643d ac56 77bc ecd5 32bd d068 0abd
000000e0: e967 4bbd d1c8 603d 74ee 5d3d c45b 94bc
000000f0: f84f 07bd 7bb7 19bd e428 67bc 7dff 1c3d
00000100: 7cfd c3bc 8252 96bc a0a5 14bc 5bd7 68bd
00000110: 29e9 3e3d 42d9 d83c 485b 35bc f8d9 92bc
00000120: f8cb f0bb 0880 c4bc ef26 1e3d 5e0f f4bc
00000130: f13f 17bd f2e4 5ebd 413b 45bd 3bca 013d
00000140: e0a9 78bb 272c 373d f7ab 023d c429 a9bc
00000150: 6c90 403c 207b 873b b036 9cbc 69c1 4abd
00000160: 07f4 443d b7b1 153d de25 dbbc 00d2 60bd
00000170: 1c88 96bc 6e29 cd3c 3120 b1bc f880 d8bb
00000180: 69fd 70bd 4057 4e3b ac0b 3ebd b46f 683c
00000190: f136 1e3d 08e8 833b 4c74 bebc 1058 193d
000001a0: 2ada 65bd 0ee2 f53c 780e a33b 0f02 4e3d
000001b0: c362 40bd ec87 48bd d0ed 2bbd 76a3 0ebd
000001c0: 3466 323d 9809 05bd d2ad 11bd e842 21bd
000001d0: 1625 1dbd e2cd a33c c52c 2a3d 1a58 b63c
000001e0: cbe6 043d e112 663d 4902 253d 01c3 013d
000001f0: 7cb9 a1bc 9ea6 23bd 73dd efbc 722f 833c
00000200: 640e 1f3c 8f0d 533d 0ca0 24bd 3447 5bbc
00000210: 24fc 3b3c 2a80 a53c e3f2 383d 938b 58bd
00000220: d0c7 4bbd 34be 013c 9299 953c 5c15 46bd
00000230: b01b 68bb 8e95 a43c 5694 61bd 92fe 25bd
00000240: 9963 4d3d 2563 47bd 530b 353d d1a9 0a3d
00000250: 209f 1cbd d8a2 f2bb 43f3 423d d5ce 48bd
00000260: a67b ae3c 3c74 2e3c b9e6 573d 0f7e 343d
00000270: e04a 453b 41d1 f4bc 07a5 333d 763a 0dbd
00000280: 4969 383d 947e b0bc 372d 1c3d b8e9 abbc
00000290: 1b61 573d a00c 6dbb 5429 1b3d c957 683d
000002a0: 147b 5f3c 00f4 3bbc c13f 453d 7d73 633d
000002b0: 10f4 88bc 6052 0a3b d077 30bd ff8c e43c
000002c0: ab8a 70bd d4de 393c 0bfd 003d 20b8 52bb
000002d0: 0eb0 30bd 7a22 68bd 8c15 82bc bf03 643d
000002e0: 7718 803b 7cba 00bd c8e9 ac3b 6000 67bb
000002f0: ce14 813c 72b7 2bbd f628 c23c 1fcd 1c3d
00000300: aa45 65bd 8ed7 243d ff88 ffbc 88a8 eebc
00000310: 6a12 c9bc 03de 2a3d 3c75 233c 2f7f 703d
00000320: a9b4 483d a44f 34bc 1823 223c 421c d8bc
00000330: 917d 64bd c25e 94bc 1b89 edbc fb59 053d
00000340: 689b fcbc fa2b b43c c446 10bd 72d1 ad3c
00000350: e6f2 66bd 7b8f 623d 5273 d1bc 2e15 9a3c
00000360: d0a6 5ebc 001a e8bb 60e2 033b 089e a83b
00000370: 652e 5dbc ca04 10bd b2f5 963c ca12 c33c
00000380: bd45 50bd c90c 2f3d f20c ab3c a9bd 32bd
00000390: 9380 463d da6e a5bc ec3c 51bd 80c8 473a
000003a0: 1a0e 903c 019e 66bd c0e8 50bb e4a8 773c
000003b0: 4cca 7a3c 7075 153b 7ab2 c5bc e567 3cbd
000003c0: c77e 473d dc44 063c 90af 5bbc 4efa b0bc
000003d0: 1511 5c3d 6078 73bc f8a1 e4bc 7d9c a4bc
000003e0: dad3 57bd 2e25 a13c 2f16 3ebd 9870 60bd
000003f0: 0780 2cbd def2 d23c 70a5 50bd 53d1 64bd

encoder.3.encoder.3.bias f4 [32]
0.05013881 -0.05565144 0.019876562 0.012632468 -0.044967838 0.02018853 -0.0039546443 -0.026491972
-0.041683983 0.046944425 -0.005281618 0.03504066 0.03858749 0.040202603 0.048972882 -0.038863488
0.01787965 0.009418368 -0.0011668968 0.02251813 -0.03764487 0.010528387 0.019313298 -0.04141809
0.014587914 0.029004417 -0.04753213 0.015781628 0.02743593 0.02815677 0.01324481 0.0008570276
00000000: 5a5e 4d3d c4f2 63bd 2cd4 a23c 69f8 4e3c
00000010: 3230 38bd 6b62 a53c f695 81bb b105 d9bc
00000020: d3bc 2abd cc48 403d 6c11 adbb cc86 0f3d
00000030: ea0d 1e3d 7cab 243d ca97 483d 522f 1fbd
00000040: 5878 923c 804f 1a3c 8ff2 98ba f177 b83c
00000050: 8231 1abd 417f 2c3c ec36 9e3c 04a6 29bd
00000060: 2502 6f3c ac9a ed3c 0db1 42bd 7948 813c
00000070: 51c1 e03c 07a9 e63c c200 593c 26aa 603a
